best_model.pth (torch, 5030 bytes, 6 tensors)

weight f4 [10, 13]
00000000: 7c17 a6bd 4984 513e f76e 2a3e 7c3b dfbd
00000010: 5bde 513e 063a 04bb 01ad 8d3e fe57 40be
00000020: c9f5 3d3e 6133 943d 9bf8 103e 624e a03d
00000030: 3589 1fbe b013 0fbc 76eb 0b3e ca0a c5bd
00000040: 24e8 2f3e 51e5 243e f5bb 523e ae56 54be
00000050: 9601 84bc 8302 b53d cecb 0abe e110 2ebe
00000060: 2524 5fbe fc5e 0bbe d591 823e ae78 f33c
00000070: 9556 a93d 8256 77be ec18 ca3d a371 8fbc
00000080: 52a7 a43c fe30 90bd 987b a3bd 74fd f43d
00000090: dae5 41be a828 b9bd 2482 83bd 2bbe 053e
000000a0: 764e 85be 03b9 653e 588b 62be 7fd8 113d
000000b0: 7366 6dbe cf73 51be 44c3 e1bd 5ee0 c63d
000000c0: 3d2a 71be 757c 263e dba2 80bd b7f5 f93d
000000d0: 40e7 9ebd 26bd ca3c a464 8a3e 67ff 613d
000000e0: d41e 3fbe b015 a23d c569 3abe 0fed 4a3c
000000f0: fa06 24bd 0475 14be f7bd 6dbe 3518 773e
00000100: 9537 3cbd f6f8 783d f0e2 61be 3803 82be
00000110: b454 4dbe 34d2 87be 284f 02be 0124 94be
00000120: 3d3f 93bd 1dd7 9ebc a15f 4fbe f111 be3d
00000130: 03cf 07be 4cbd 0d3e 9549 393e b283 bd3d
00000140: 7e7c 60be b0a8 383e 568d 36be f826 613e
00000150: d7f9 13be 5f1d e13c a14d 91be 2d30 1c3d
00000160: 86d4 a83d 31b9 b93d e49a a53c 6be1 283e
00000170: a3a3 86be e202 5bbe 2a8a 433e cb1c 92be
00000180: 92cd 31be 1856 78be 7c01 573d 9b23 58be
00000190: f545 053d af36 81be c035 84bd 1298 3d3e
000001a0: dfc3 dcbd c796 fbbd 9469 63be a2df 15be
000001b0: f844 4a3e 21eb c5bd 2349 4abe 59fb 893e
000001c0: 2669 ed3d 45d8 733e e2ba 9a3d 5bc7 8a3e
000001d0: 5ec6 05be d2ba 5b3e 2853 5fbe 005c 9f3e
000001e0: 1fe4 103e 6dd5 293e d23c 243e f359 a13e
000001f0: 67d4 14be 1de1 673e 5460 acba 2f35 91bd
00000200: 640e 5d3e 3641 b73d
-0.08109948 0.20460619 0.16643892 -0.109000176 0.20494978 -0.0020176186 0.27671054 -0.18783566
0.18550791 0.07236362 0.14157335 0.0782745 -0.15579684 -0.008732721 0.1366404 -0.096211985
0.17178398 0.16103102 0.20579512 -0.2073619 -0.016114037 0.0883837 -0.13554308 -0.16998626
-0.21791132 -0.13610452 0.25501886 0.02972063 0.08268467 -0.24154094 0.09868035 -0.01751024
0.020099316 -0.070405945 -0.07982558 0.11962405 -0.18935338 -0.09040958 -0.06421307 0.13060825
-0.26036423 0.22433858 -0.22123468 0.035606857 -0.23183613 -0.20454334 -0.11023572 0.097107634
-0.23551269 0.16258414 -0.06281062 0.122050695 -0.07758951 0.024748396 0.27029908 0.05517521
-0.18664104 0.07914293 -0.1820441 0.012385621 -0.040045716 -0.14497763 -0.23216997 0.24130328
-0.045951445 0.060784303 -0.22059226 -0.2539308 -0.20051843 -0.2652756 -0.12725508 -0.2893372
-0.07189796 -0.019389683 -0.20251323 0.09280766 -0.13262562 0.13841742 0.18094476 0.092536345
-0.2192249 0.18033099 -0.17827353 0.21987522 -0.14450775 0.027479826 -0.2837954 0.03813188
0.08243661 0.090685256 0.02021546 0.1649224 -0.2629672 -0.21387818 0.19095674 -0.28537592
-0.17363575 -0.24251592 0.05249165 -0.21107332 0.03253742 -0.25237033 -0.064555645 0.18515041
-0.10779547 -0.12284618 -0.22208244 -0.1463609 0.19752872 -0.09663988 -0.19754462 0.26949576
0.11592321 0.23812969 0.07555176 0.2710522 -0.13063952 0.21457985 -0.21809065 0.31124878
0.14149521 0.16585322 0.16038826 0.31513938 -0.1453415 0.22644468 -0.0013151267 -0.07090222
0.21587521 0.08947985

bias f4 [10]
00000000: 2418 0fbe 3cb7 fdbd 977c 0dbe b8f5 69be
00000010: c88d 9cbd 3191 993d 8978 81bd 45a1 ef3a
00000020: fb60 92bd a3a8 13be
-0.13974053 -0.12388465 -0.13817059 -0.2284764 -0.0764423 0.07498396 -0.063218184 0.0018282315
-0.07147404 -0.14419799

weight f4 [10, 10]
00000000: cee0 af3d 3ab6 a13e 0219 ec3d 133b d4bd
00000010: 0810 09be 0866 2fbe 2aa2 87bd b6fd 81be
00000020: 3f74 3d3d eb41 6abe e289 91be 755d ed3d
00000030: 34cb 933e 66bd 4fbe db37 0b3d 9aec 8f3c
00000040: f471 153d 0caf a83e e648 6ebe db09 2c3d
00000050: 0071 e63d c874 4fbe b2d8 bbbd d288 30be
00000060: 0032 54be 7b0d 963e 396d 853d a16c 45bd
00000070: 8ed8 31be ef28 95be c020 733e f081 643e
00000080: cc13 bdbd 8984 963c d465 a83c c515 b33c
00000090: e3a1 66be 0dd5 103d c70a 953b 0aa2 693d
000000a0: 8b31 fabd c3ec 183d daf0 083d 5d65 883e
000000b0: d2a5 80be ae3a 37be 2c45 35bd db8e 6a3e
000000c0: 0951 753e 0d0b 203c 6d85 97be f6c1 05be
000000d0: df2b 47be 0669 e9bd a06d 833e 7a0a 4e3e
000000e0: d549 c83d 5bbb 4d3d 173e 633e 6a1b 58be
000000f0: bdd7 6dbe b8a9 7dbe f28d 92be f900 873e
00000100: 3a72 9c3e 3565 5cbd ada9 853e e573 dd3d
00000110: 7e4f 01be d4cf 903d e699 06be da8c 853e
00000120: 7f95 703e 0048 ebbd 83fd 8a3e 087c 293c
00000130: 68cf 193e 14f9 87be 36ae c9bd 9284 60be
00000140: cbd5 03be fd37 3abe a660 4e3d 0de6 a83d
00000150: e65b 9cbe 5f66 413e 6751 cf3d 4de1 69bd
00000160: 5d23 203e 61d9 91be 1310 4f3e ba09 183e
00000170: 318b d0bd ad97 3fbe 51ab 993e e9ae 803d
00000180: 71f6 293e bc91 403d 1d66 23be aeae 94be
0.085878 0.3158434 0.11528207 -0.1036283 -0.13385022 -0.17128766 -0.06622727 -0.2538888
0.04625344 -0.22876708 -0.2842551 0.11590091 0.2886597 -0.20287094 0.033988815 0.017568875
0.036485627 0.3294605 -0.23269996 0.042001586 0.11252022 -0.20259392 -0.09172191 -0.17239693
-0.20722198 0.2930716 0.06514973 -0.0481993 -0.17367765 -0.29132792 0.23742962 0.22315192
-0.092322916 0.018373745 0.020556368 0.021860966 -0.22522692 0.03535943 0.004548404 0.057039298
-0.12216481 0.03733517 0.03343282 0.26639834 -0.2512651 -0.17893478 -0.04425542 0.22906058
0.23956694 0.00976826 -0.29593983 -0.13062271 -0.19450329 -0.11396985 0.25669575 0.20121184
0.09779707 0.050227504 0.22191654 -0.21104208 -0.23226829 -0.24771774 -0.2862392 0.2636793
0.30555898 -0.053807456 0.26106015 0.10813121 -0.1262798 0.0707089 -0.13144645 0.26084024
0.23494528 -0.11488342 0.2714654 0.010344513 0.15020525 -0.2655722 -0.09847681 -0.21925572
-0.12874524 -0.1818542 0.05038514 0.08247004 -0.30538863 0.18886708 0.10122948 -0.05709963
0.1563849 -0.2848616 0.20220976 0.1484746 -0.10182799 -0.18710203 0.30013517 0.062833615
0.16597916 0.047013983 -0.15956922 -0.2903952

bias f4 [10]
00000000: 7977 c7bd e336 3a3d a210 293d 55d6 e5bd
00000010: adbe 48be aee7 473d 3e63 a4be 855f 8a3e
00000020: 547f 3e3e 3bb8 64be
-0.097395845 0.0454625 0.041275628 -0.11222521 -0.19603987 0.04880493 -0.32106966 0.27026
0.1860326 -0.22335903

weight f4 [3, 10]
00000000: 89e4 f5bd ddf3 313e 1c78 683e ffee fabd
00000010: 0223 4e3b 08be 053e f7d3 71bd 5d9a a5bd
00000020: 303e e6bd 5638 793d a04a 6f3e 91af 083e
00000030: 3500 76be 0f08 fabc f21c 913d 5b49 f1bd
00000040: c837 19be 0b3b 32be 9551 f13d c73e 9f3d
00000050: df13 44be 3dc5 8fbd b037 0ebe b76e 673b
00000060: dca3 023c 5675 693e e13d 283d 2907 673e
00000070: be4d 8c3d 7344 b5bd
-0.1200648 0.17378183 0.22702068 -0.12252616 0.0031453972 0.13060772 -0.059040036 -0.08086083
-0.1124233 0.06084474 0.23368311 0.13348223 -0.24023516 -0.03052142 0.07085599 -0.117815696
-0.14962685 -0.17405336 0.11783139 0.07775646 -0.19148205 -0.07020042 -0.1388843 0.0035313794
0.007973637 0.22798666 0.041074637 0.22561325 0.06850766 -0.08850946

bias f4 [3]
00000000: 9b46 8fbe 00cd 993e 7b51 a5be
-0.27983555 0.30039215 -0.32288727
