wine_model.pth (torch, 5030 bytes, 6 tensors)

weight f4 [10, 13]
0	0xbeb9f6ca	-0.36321098
1	0xbe97b734	-0.2963196
2	0x3de94d9f	0.11391758
3	0x3eae3537	0.34024975
4	0xbe6d3274	-0.23163778
5	0x3e5d1a0d	0.21591969
6	0xbd960122	-0.07324435
7	0xbdc3d225	-0.09561566
8	0xbe06067b	-0.1308841
9	0xbd08d1c8	-0.033403188
10	0x3eae999b	0.34101567
11	0x3e237a29	0.15964569
12	0xbef7419a	-0.48292238
13	0x3d08dbca	0.033412732
14	0x3d6c8a81	0.057749275
15	0x3d88629c	0.06659433
16	0x3e8a5377	0.27016804
17	0xbe0093e2	-0.12556413
18	0xbe7fd0d0	-0.24982
19	0xbec55990	-0.38544893
20	0x3ee833f8	0.4535215
21	0xbdc34107	-0.09533887
22	0x3eb6fbab	0.35738882
23	0xbd60ece0	-0.0549134
24	0x3d221763	0.039573085
25	0x3d26d43c	0.040729746
26	0x3e4fdbb0	0.20298648
27	0x3e0c1815	0.13681062
28	0x3df77d68	0.12084466
29	0xbe183573	-0.1486414
30	0x3e6e8a55	0.23294957
31	0x3dddfb3a	0.10838933
32	0x3dc496e9	0.09599096
33	0xbe9a0895	-0.30084673
34	0xbcb95ffd	-0.022628779
35	0x3dc55440	0.0963521
36	0x3e3ce6b8	0.18447387
37	0x3e0359f5	0.12827285
38	0x3e53d86e	0.2068803
39	0xbaf90a76	-0.001900031
40	0xbdc782dc	-0.09741756
41	0x3edc0dbe	0.42979234
42	0x3e0ba4b3	0.13637047
43	0x3e5ca161	0.21545936
44	0xbec666f6	-0.38750428
45	0xbe8bdf8c	-0.2731899
46	0xbda266df	-0.07929777
47	0xbdf621c1	-0.12018157
48	0x3e1b78a0	0.15182734
49	0xbeb14658	-0.3462398
50	0xbc95680d	-0.018238092
51	0x3ecc5f99	0.39916685
52	0x3e97eadf	0.2967138
53	0x3d9ba1d0	0.07599223
54	0xbc74b7ef	-0.014936431
55	0xbe7ed105	-0.24884422
56	0xbd66ba6a	-0.056330122
57	0x3e57cba0	0.2107377
58	0x3e63bebc	0.22240728
59	0xbe8b19f5	-0.2716824
60	0xbb5a184c	-0.0033278642
61	0xbdcc42a9	-0.09973652
62	0xbd91a044	-0.07110646
63	0x3eb85878	0.36004996
64	0x3ea8e088	0.32983804
65	0xbe6dad18	-0.23210561
66	0xbc572b25	-0.013132845
67	0x3c781b84	0.015143279
68	0xbd1ef6c1	-0.03880954
69	0xbeb7d6d3	-0.35906085
70	0x3e9d6f51	0.3074899
71	0x3e72a068	0.23694003
72	0x3d33266b	0.04373781
73	0xbdd4a5f4	-0.103832155
74	0x3c44a751	0.012002782
75	0xbd18a163	-0.037263285
76	0x3eaee1e4	0.34156716
77	0x3e018dad	0.12651701
78	0x3ea7f565	0.3280441
79	0xbd3b1763	-0.0456766
80	0x3c7fe0a6	0.015617525
81	0xbe9ef6e9	-0.31047752
82	0x3e74a967	0.23892747
83	0xbd43e769	-0.04782811
84	0x3df79653	0.12089219
85	0x3cccb85c	0.024990253
86	0x3e8fd28b	0.2809032
87	0x3e5e58b1	0.2171352
88	0x3e575eea	0.210323
89	0x3e796487	0.24354754
90	0x3ea2572f	0.3170714
91	0xbeb13c02	-0.34616095
92	0x3e6bdcd0	0.23033452
93	0x3e26b40d	0.16279621
94	0x3c312d44	0.010814015
95	0xbe92d738	-0.28679824
96	0xbeab9666	-0.33513182
97	0x3db922e4	0.09039858
98	0x3b5474e0	0.0032418296
99	0xbe19372d	-0.14962454
100	0x3e9f930b	0.31166872
101	0xbeb39e7b	-0.35081849
102	0xbe87d79e	-0.2653169
103	0xbe458fa0	-0.1929307
104	0xbee15540	-0.44010353
105	0xbeb347d0	-0.35015726
106	0x3c45190d	0.012029898
107	0x3eb1462d	0.34623852
108	0xbe958e32	-0.2921005
109	0x3c3767b4	0.011194158
110	0x3e579709	0.21053709
111	0xbd8e1dc0	-0.06939268
112	0xbe3ea48b	-0.18617456
113	0xbe86214a	-0.26197273
114	0x3e12dbfd	0.14341731
115	0xbda47eb9	-0.08031983
116	0xbda7ee3c	-0.081997365
117	0x3e298450	0.1655438
118	0xbdc52a73	-0.09627237
119	0x3e348957	0.17630516
120	0x3cd0fda4	0.02551157
121	0x3e8a921c	0.27064598
122	0x3e0ec65b	0.13942854
123	0x3ec5ca60	0.38630962
124	0xbec175e6	-0.37785262
125	0x3e5a6685	0.2132817
126	0xbd55f96e	-0.052239828
127	0x3ecac30a	0.39601928
128	0x3eb87af7	0.36031315
129	0x3ee78b61	0.45223525

bias f4 [10]
0	0x3d1aa693	0.037756514
1	0x3df681f8	0.12036508
2	0x3e25c642	0.1618891
3	0x3ec5b635	0.38615575
4	0x3ea09654	0.3136469
5	0x3e06c9b4	0.13162881
6	0x3e816a22	0.25276285
7	0x3d1d8a58	0.038462013
8	0x3eab275b	0.33428463
9	0x3e3c857b	0.18410294

weight f4 [10, 10]
0	0xbc8ff55b	-0.01757305
1	0x3ea3795d	0.3192853
2	0xbe2784bd	-0.1635923
3	0xbe023095	-0.12713845
4	0xbea10725	-0.31450763
5	0x3ea704a0	0.32620716
6	0x3e5521e1	0.20813705
7	0x3ed6319b	0.4183472
8	0x3e93d66d	0.2887453
9	0xbd0891a9	-0.033342037
10	0xbdd7ea5a	-0.10542746
11	0x3ef9e604	0.488083
12	0x3eacb194	0.3372923
13	0x3edd1fd4	0.43188345
14	0x3da5792f	0.080797546
15	0x3c1a8e73	0.009433377
16	0x3dc56292	0.096379414
17	0x3e622aef	0.2208669
18	0xbe4fb496	-0.20283732
19	0xbea9c2b7	-0.33156368
20	0x3eee547c	0.4654883
21	0x3dd65ac3	0.1046653
22	0xbe27b01f	-0.16375779
23	0xbecdddf9	-0.40208414
24	0xbd38e84a	-0.045143403
25	0x3ea249c5	0.31696907
26	0xbdbd8651	-0.092541344
27	0x3e41b1ac	0.18915433
28	0x3ec72dea	0.38902217
29	0x3cbc0944	0.022953637
30	0x3dc4e8d9	0.09614725
31	0x3ce91264	0.028451152
32	0x3ee1aa03	0.4407502
33	0x3e08ba99	0.13352431
34	0xbca39c5d	-0.01997202
35	0x3eb0b71a	0.34514695
36	0x3ee71c24	0.45138657
37	0xbec28d98	-0.37998652
38	0xbdecd8e6	-0.115648076
39	0x3ed6da16	0.4196326
40	0x3f035bae	0.5131177
41	0xbd8edd56	-0.0697581
42	0x3e68a4b2	0.22719076
43	0xbe3e0a42	-0.185586
44	0xbd766c05	-0.06016161
45	0xbdc9a0d8	-0.09845132
46	0x3d643ef6	0.055724107
47	0x3e630627	0.22170316
48	0x3ed34a2a	0.4126752
49	0xbe442158	-0.19153345
50	0x3de35a64	0.11101225
51	0xbe611406	-0.21980295
52	0x3ea64f0c	0.32482183
53	0xbe3fc53e	-0.18727586
54	0x3e7bf69c	0.24605793
55	0x3eb56073	0.35425147
56	0x3e81aed8	0.25328708
57	0xbdc886a0	-0.09791303
58	0x3e8d5622	0.27604777
59	0x3ea031fc	0.31288135
60	0xbe879a0f	-0.26484725
61	0x3e05b411	0.13056971
62	0x3c8c24ba	0.017107356
63	0x3ecd2e84	0.4007455
64	0x3d911089	0.07083232
65	0xbdaa3424	-0.08310726
66	0xbdeffd2b	-0.1171821
67	0x3e9149f6	0.2837674
68	0xbe5bae58	-0.21453226
69	0x3e86b6e4	0.2631141
70	0xbda2c0de	-0.07946943
71	0xbda8cb74	-0.082419306
72	0xbe9ece74	-0.31016886
73	0xbdcf9199	-0.101351924
74	0xbe95a80a	-0.29229766
75	0xbc545d94	-0.012961764
76	0x3e646bdd	0.22306772
77	0x3e3f8071	0.1870134
78	0x3e1be1a5	0.15222795
79	0xbdbc1a46	-0.09184699
80	0xbd217eea	-0.039427675
81	0x3ce9359f	0.028467951
82	0x3ef8e8f1	0.4861522
83	0x3d984390	0.074347615
84	0x3ece0813	0.40240535
85	0xbdf03cb6	-0.1173033
86	0x3bbc5f93	0.005748698
87	0xbecbbf3b	-0.39794335
88	0xbe4d6eaa	-0.20061746
89	0x3e5e3d8f	0.2170317
90	0x3ebe88cc	0.37213743
91	0x3de65ef6	0.11248581
92	0x3dc2c5f0	0.0951041
93	0xbe682e25	-0.22673853
94	0x3d5d80a3	0.054077756
95	0x3e33fe9e	0.17577597
96	0xbeee8a89	-0.4659007
97	0xbdd92dce	-0.1060444
98	0x3e82e059	0.2556179
99	0x3e2338bd	0.15939613

bias f4 [10]
0	0x3e557771	0.20846345
1	0xbd891c22	-0.06694819
2	0x3d628210	0.05529982
3	0x3d47bb01	0.048762325
4	0x3dc36dc7	0.09542423
5	0x3ed96907	0.42462942
6	0x3e0fa453	0.14027528
7	0xbe59906e	-0.21246502
8	0x3e92834b	0.28615794
9	0x3e83386b	0.2562898

weight f4 [3, 10]
0	0xbec1f5ad	-0.37882748
1	0xbe1edcda	-0.15513936
2	0xbe9bbe4c	-0.30418622
3	0x3ae524d4	0.0017482289
4	0xbe8a3a7d	-0.26997748
5	0x3eead0f2	0.45862538
6	0xbddab958	-0.10679883
7	0x3e517481	0.20454599
8	0x3ebe50c6	0.37171
9	0xbd7e7a69	-0.06212846
10	0x3e83f470	0.2577243
11	0xbeb4c30d	-0.35305062
12	0x3ed8d5d5	0.4235064
13	0xbea6ecd1	-0.32602552
14	0x3e219889	0.15780844
15	0x3e48ec0a	0.19621292
16	0xbea7e05f	-0.3278837
17	0x3e8eb282	0.27870566
18	0xbe5d6524	-0.21620613
19	0x3ebf9bdc	0.374236
20	0x3e260123	0.16211371
21	0x3e83a0d9	0.25708655
22	0xbb6a8fdc	-0.0035791313
23	0xbea83d97	-0.3285949
24	0xbde260b8	-0.11053604
25	0xbe320bf9	-0.1738738
26	0x3dbb592b	0.09147867
27	0xbe995cfa	-0.29953748
28	0xbce5c872	-0.028049681
29	0xbea5a77b	-0.3235434

bias f4 [3]
0	0xbe84c663	-0.25932607
1	0x3e57abc2	0.21061614
2	0xbbec6bde	-0.007215007
