wine_dataset.pth (torch, 5050 bytes, 6 tensors)

weight f4 [10, 13]
00000000: dcfe f03c a170 2e3e 1191 1a3e 7dd0 2a3e
00000010: 43d2 633e 91f0 87bd a898 30be 4166 4abd
00000020: f940 8ebd f678 30bd b944 97be 3a08 e7be
00000030: f8a3 b3bd 13cd acbd 19fc 193d 3f70 f3bc
00000040: 42db 31bd 7d7d a4be 27ef 83be 69e2 a3be
00000050: 4bf8 94bd f3da bebc b855 77bc 42c0 953d
00000060: 7159 9dbe f15e c9be bbb4 e1bd 1421 52bd
00000070: 8d1f 8f3e 386c 8dbd 1cdc e23d 2a9e b43e
00000080: 5da3 393e 0a42 cabd 4075 453e 3f85 703e
00000090: efe4 b63e 8450 bf3e bd13 9c3e ab32 f9bd
000000a0: b1c6 cd3d 5c2d 0abc e28e d63e bc03 09be
000000b0: 1a2a 37be b87e b53e c7a5 b03e d59c 163e
000000c0: 7505 e3bd 56ef 9b3e c612 053e 89f2 cfbd
000000d0: d0be eabd 3f79 c13d 0ef8 cd3d fe94 f5bd
000000e0: 7e0e e13d 96d9 0bbe 1019 8f3d 495a af3e
000000f0: c456 90be b90f 49be 35a2 9ebe 9cc6 9b3c
00000100: acd9 c1be 14cc f93d d8ea 6e3e fcb1 00be
00000110: 79e8 cd3e 6743 17bd da2b 9cbe 84d0 a1be
00000120: d3c4 a1bd e0a1 9fbe 956a bd3e aaf1 c4be
00000130: 865a 81be a66e c7bd 21ca b43d 3a50 33be
00000140: 0ef9 913c 069a 683e be9c 4c3e ada9 a63d
00000150: b355 96bd 3386 dc3d 082c d53d aa71 443d
00000160: a929 aabd 7fd7 8abe 4310 0dbe 798b 183e
00000170: 32ee c73c 6e6e e9bc 6d76 063d 06cc e63d
00000180: 5c35 6abe 7347 47bc 6b6d 773e e0d2 90be
00000190: a00a 57be d092 a7be bc55 c2bc d6da 83be
000001a0: a448 213c 1674 81be e7a1 d2be ffcb 853e
000001b0: cfe2 23be 49b2 aabd 7192 a9be 12ce a1be
000001c0: bf3d 0ebe 6251 8dbe 8d6d 223d 62f4 d93e
000001d0: ece2 a2bd 0f5c 4a3d 82e0 edbd 8482 b53d
000001e0: 56a7 7ebb 0344 b43e 584f 7f3e b9ec 2cbc
000001f0: 9605 68be a421 80bb 7d59 c63c daec 1abd
00000200: 5b9f 773e e955 b73e
0.029418401 0.17035152 0.15094401 0.16681094 0.22248177 -0.06637681 -0.17245734 -0.049413923
-0.06945986 -0.043084107 -0.2954462 -0.45123464 -0.08771509 -0.08437552 0.037593935 -0.029716609
-0.04342199 -0.3212699 -0.25768396 -0.32008675 -0.072739206 -0.023297762 -0.015096121 0.07312061
-0.307323 -0.39330247 -0.110208 -0.051301077 0.2795376 -0.06905407 0.11077139 0.3527692
0.18128724 -0.09875877 0.19283009 0.2348833 0.35721537 0.37366116 0.3048381 -0.12167867
0.10047663 -0.008433666 0.41905886 -0.13380331 -0.17887154 0.3544824 0.34501478 0.14708264
-0.11085025 0.30456036 0.12995443 -0.10153682 -0.11462176 0.09446954 0.10057078 -0.11991309
0.10989092 -0.13657221 0.06987202 0.3424857 -0.28191197 -0.19634904 -0.3098313 0.019015603
-0.37861383 0.12197128 0.23331773 -0.12567896 0.40216425 -0.036929514 -0.30502206 -0.31604397
-0.07898869 -0.31178188 0.36995378 -0.38465625 -0.25264376 -0.097379014 0.088276155 -0.17511073
0.017818954 0.22715005 0.19981667 0.08137832 -0.073405646 0.10767784 0.10408789 0.04795996
-0.08308727 -0.27117535 -0.13775735 0.14896955 0.024405573 -0.02849504 0.032827783 0.11269383
-0.22871917 -0.012163031 0.24162833 -0.28285885 -0.21000147 -0.32729197 -0.023722522 -0.25752896
0.009843979 -0.2528388 -0.41139147 0.261322 -0.1600449 -0.083347864 -0.33119538 -0.31602532
-0.13890742 -0.27601153 0.039655257 0.42569262 -0.07953438 0.0494042 -0.11615087 0.088627845
-0.0038857064 0.3520814 0.24932611 -0.010554486 -0.22658381 -0.0039102603 0.024212593 -0.037823536
0.24181883 0.35807732

bias f4 [10]
00000000: e376 a1bc 0da8 c33e 65cc 933e 3bc7 abbc
00000010: da84 ecbc 109e 523e 9f73 37be 6e8b 793b
00000020: 5d98 6a3e a4ae ed3d
-0.01971001 0.3821415 0.28866878 -0.020969024 -0.028871942 0.20568109 -0.179152 0.0038077491
0.22909684 0.11605576

weight f4 [10, 10]
00000000: a942 113d a095 303e ab92 d73e 28a2 d1be
00000010: e9e4 acbe e022 acbd 96f3 873b d0cd aebe
00000020: b9ea 4bbe 8612 b53d f768 733e 82b9 ca3b
00000030: cdb2 65be dbbc 9fbe d1bb 9fbd 8b5e d13e
00000040: 40d6 8e3e ab40 183e ea04 4abd 39ed 49be
00000050: 7cfe 273e 5b01 a7bd 5188 11be 14b7 013b
00000060: 7249 d13d 46e8 c83c 24f1 2a3e 2c93 40be
00000070: c0a9 e73d b32c ba3c 7d06 3e3e df41 a53e
00000080: cda3 49bd 1318 ccbe b42b 923e f9a4 ab3e
00000090: 7668 bf3e f6f2 233e e0c7 d8be 182b d0be
000000a0: 7b24 cf3e 192d 783d 6277 dbbd 1d51 ef3c
000000b0: e73d 6dbe 8057 443e 7f70 53be 5573 9f3e
000000c0: d698 51be a70d 923d 31dd 34bc 720f 4dbe
000000d0: 49e0 cfbc 46ee b5be b603 273e 11a5 543d
000000e0: c57b 79be 7d5b a7be 3b68 97be 1551 963d
000000f0: 14e1 62bd 500c a13e 5099 263e 1bdc af3e
00000100: 1612 c33e bd07 8b3e 48b4 d0bd 2158 e73e
00000110: 9a0e 973e fe89 fcbe 92eb 873c 8a35 583e
00000120: 5328 93bb 3a1a d83e 17cb cfbb 21f6 633d
00000130: b11c 40ba 4edf 5a3d 2cf7 51be 17da 57be
00000140: 587a 82be 6fea 2abe f735 f53e b7e6 49be
00000150: 60e1 e5bd c653 523d 9e6d 5b3e d44d 38be
00000160: ba75 9bbe 05ab 583e 2af9 2f3d 9f3f ac3d
00000170: 9bc6 81bd 76d9 e6bd 07f7 50be 50c7 15bd
00000180: 56f1 9bbe b483 9a3e b561 f83e 85b6 79be
0.035463963 0.17244577 0.42104086 -0.40944028 -0.33768395 -0.084050894 0.0041489108 -0.34141397
-0.19913758 0.08841424 0.2377051 0.006186665 -0.22431488 -0.31198773 -0.07799495 0.40892443
0.27897835 0.14868419 -0.049321093 -0.197194 0.16405672 -0.081545554 -0.14212157 0.001979296
0.10219087 0.02452482 0.1669355 -0.18806142 0.11311674 0.022726392 0.18557163 0.32276818
-0.04922848 -0.39862117 0.28548968 0.33524302 0.37384385 0.16010651 -0.42339993 -0.40657878
0.4045752 0.060589883 -0.1071613 0.029213483 -0.23168145 0.19174004 -0.20648383 0.3114268
-0.20468459 0.0713151 -0.011039064 -0.20025423 -0.025375502 -0.3553335 0.1631001 0.051915232
-0.2436362 -0.32686988 -0.2957171 0.07339684 -0.055390432 0.31454706 0.16269422 0.34347615
0.38099736 0.2715434 -0.10190636 0.45184425 0.29503328 -0.4932403 0.01659182 0.21114174
-0.004490891 0.4220751 -0.006341349 0.05565465 -0.0007328494 0.053435616 -0.20504445 -0.21079288
-0.25483966 -0.16690992 0.47892734 -0.19716917 -0.112246275 0.051349424 0.21428534 -0.17998439
-0.30363256 0.21158989 0.04296223 0.08410572 -0.06336709 -0.11271946 -0.20406733 -0.036567032
-0.30457562 0.30178607 0.48512045 -0.24386032

bias f4 [10]
00000000: 5c48 b13d e531 7c3d f25a 94be 0bd9 5f3e
00000010: b43e ecbd dbd3 e4bd ddd0 ed3d 9c9e afbc
00000020: 7469 b33e d7e5 10be
0.086563796 0.06157102 -0.28975636 0.21860139 -0.11535397 -0.11173221 0.11612103 -0.021437936
0.35041392 -0.14150177

weight f4 [3, 10]
00000000: e97f a43e ee02 15be bc60 333c 4a3d cabe
00000010: c18a 1cbe cd42 62be 192a e6be 5a6e 993c
00000020: 4d85 b73e a21c 63be e416 41be a694 41be
00000030: 5bf6 1bbe 8eac f6bd a3ab d6be 04bc 333e
00000040: 6b06 013f af8f b83d d71f 2fbd 20db ce3d
00000050: 8a45 87bd 4d01 a33e 7d7c b33d c33d c93e
00000060: 5720 9a3e 81e6 d0bd abbd 0e3e 2ffa 723c
00000070: 6ef7 72bd 0000 b8be
0.32128838 -0.14551899 0.010948356 -0.39499885 -0.15287305 -0.22095795 -0.44953993 0.018729378
0.35843888 -0.22178891 -0.18856388 -0.18904361 -0.15230696 -0.12044631 -0.41927823 0.17552191
0.5040042 0.090117805 -0.042754974 0.101003885 -0.066050604 0.3183693 0.08763979 0.39304933
0.30102798 -0.10200215 0.1393954 0.014830156 -0.059318 -0.359375

bias f4 [3]
00000000: cc68 973e 411e 50bc d99c 26be
0.2957214 -0.012702526 -0.1627077
